…
    "title": "Download data",
    "section": "Inference",
    "text": "Inference\n\ndf_test = pd.read_parquet('test_sequences.parquet')\n\n\nds = RNA_Dataset_Test(df_test)\ndl = DeviceDataLoader(torch.utils.data.DataLoader(ds, batch_size=bs, \n               shuffle=False, drop_last=False, num_workers=num_workers), device)\n\n\ndel df_test\ngc.collect()\n\n0\n\n\n\nmodel = RNA_Model()   \nmodel = model.to(device)\n# model.load_state_dict(torch.load('model_fintune.pth',map_location=torch.device('cpu')))\nmodel.load_state_dict(torch.load('model2.pth',map_location=torch.device('cpu')))\nmodel.eval()\n\nRNA_Model(\n  (emb): Embedding(4, 192)\n  (pos_enc): SinusoidalPosEmb()\n  (transformer): TransformerEncoder(\n    (layers): ModuleList(\n      (0): TransformerEncoderLayer(\n        (self_attn): MultiheadAttention(\n          (out_proj): NonDynamicallyQuantizableLinear(in_features=192, out_features=192, bias=True)\n        )\n        (linear1): Linear(in_features=192, out_features=768, bias=True)\n        (dropout): Dropout(p=0.1, inplace=False)\n        (linear2): Linear(in_features=768, out_features=192, bias=True)\n        (norm1): LayerNorm((192,), eps=1e-05, elementwise_affine=True)\n        (norm2): LayerNorm((192,), eps=1e-05, elementwise_affine=True)\n        (dropout1): Dropout(p=0.1, inplace=False)\n        (dropout2): Dropout(p=0.1, inplace=False)\n        (activation): GELU(approximate=none)\n      )\n      (1): TransformerEncoderLayer(\n        (self_attn): MultiheadAttention(\n          (out_proj): NonDynamicallyQuantizableLinear(in_features=192, out_features=192, bias=True)\n        )\n        (linear1): Linear(in_features=192, out_features=768, bias=True)\n        (dropout): Dropout(p=0.1, inplace=False)\n        (linear2): Linear(in_features=768, out_features=192, bias=True)\n        (norm1): LayerNorm((192,), eps=1e-05, elementwise_affine=True)\n        (norm2): LayerNorm((192,), eps=1e-05, elementwise_affine=True)\n        (dropout1): Dropout(p=0.1, inplace=False)\n        (dropout2): Dropout(p=0.1, inplace=False)\n        (activation): GELU(approximate=none)\n      )\n      (2): TransformerEncoderLayer(\n        (self_attn): MultiheadAttention(\n          (out_proj): NonDynamicallyQuantizableLinear(in_features=192, out_features=192, bias=True)\n        )\n        (linear1): Linear(in_features=192, out_features=768, bias=True)\n        (dropout): Dropout(p=0.1, inplace=False)\n        (linear2): Linear(in_features=768, out_features=192, bias=True)\n        (norm1): LayerNorm((192,), eps=1e-05, elementwise_affine=True)\n        (norm2): LayerNorm((192,), eps=1e-05, elementwise_affine=True)\n        (dropout1): Dropout(p=0.1, inplace=False)\n        (dropout2): Dropout(p=0.1, inplace=False)\n        (activation): GELU(approximate=none)\n      )\n      (3): TransformerEncoderLayer(\n        (self_attn): MultiheadAttention(\n          (out_proj): NonDynamicallyQuantizableLinear(in_features=192, out_features=192, bias=True)\n        )\n        (linear1): Linear(in_features=192, out_features=768, bias=True)\n        (dropout): Dropout(p=0.1, inplace=False)\n        (linear2): Linear(in_features=768, out_features=192, bias=True)\n        (norm1): LayerNorm((192,), eps=1e-05, elementwise_affine=True)\n        (norm2): LayerNorm((192,), eps=1e-05, elementwise_affine=True)\n        (dropout1): Dropout(p=0.1, inplace=False)\n        (dropout2): Dropout(p=0.1, inplace=False)\n        (activation): GELU(approximate=none)\n      )\n      (4): TransformerEncoderLayer(\n        (self_attn): MultiheadAttention(\n          (out_proj): NonDynamicallyQuantizableLinear(in_features=192, out_features=192, bias=True)\n        )\n        (linear1): Linear(in_features=192, out_features=768, bias=True)\n        (dropout): Dropout(p=0.1, inplace=False)\n        (linear2): Linear(in_features=768, out_features=192, bias=True)\n        (norm1): LayerNorm((192,), eps=1e-05, elementwise_affine=True)\n        (norm2): LayerNorm((192,), eps=1e-05, elementwise_affine=True)\n        (dropout1): Dropout(p=0.1, inplace=False)\n        (dropout2): Dropout(p=0.1, inplace=False)\n        (activation): GELU(approximate=none)\n      )\n      (5): TransformerEncoderLayer(\n        (self_attn): MultiheadAttention(\n          (out_proj): NonDynamicallyQuantizableLinear(in_features=192, out_features=192, bias=True)\n        )\n        (linear1): Linear(in_features=192, out_features=768, bias=True)\n        (dropout): Dropout(p=0.1, inplace=False)\n        (linear2): Linear(in_features=768, out_features=192, bias=True)\n        (norm1): LayerNorm((192,), eps=1e-05, elementwise_affine=True)\n        (norm2): LayerNorm((192,), eps=1e-05, elementwise_affine=True)\n        (dropout1): Dropout(p=0.1, inplace=False)\n        (dropout2): Dropout(p=0.1, inplace=False)\n        (activation): GELU(approximate=none)\n      )\n      (6): TransformerEncoderLayer(\n        (self_attn): MultiheadAttention(\n          (out_proj): NonDynamicallyQuantizableLinear(in_features=192, out_features=192, bias=True)\n        )\n        (linear1): Linear(in_features=192, out_features=768, bias=True)\n        (dropout): Dropout(p=0.1, inplace=False)\n        (linear2): Linear(in_features=768, out_features=192, bias=True)\n        (norm1): LayerNorm((192,), eps=1e-05, elementwise_affine=True)\n        (norm2): LayerNorm((192,), eps=1e-05, elementwise_affine=True)\n        (dropout1): Dropout(p=0.1, inplace=False)\n        (dropout2): Dropout(p=0.1, inplace=False)\n        (activation): GELU(approximate=none)\n      )\n      (7): TransformerEncoderLayer(\n        (self_attn): MultiheadAttention(\n          (out_proj): NonDynamicallyQuantizableLinear(in_features=192, out_features=192, bias=True)\n        )\n        (linear1): Linear(in_features=192, out_features=768, bias=True)\n        (dropout): Dropout(p=0.1, inplace=False)\n        (linear2): Linear(in_features=768, out_features=192, bias=True)\n        (norm1): LayerNorm((192,), eps=1e-05, elementwise_affine=True)\n        (norm2): LayerNorm((192,), eps=1e-05, elementwise_affine=True)\n        (dropout1): Dropout(p=0.1, inplace=False)\n        (dropout2): Dropout(p=0.1, inplace=False)\n        (activation): GELU(approximate=none)\n      )\n      (8): TransformerEncoderLayer(\n        (self_attn): MultiheadAttention(\n          (out_proj): NonDynamicallyQuantizableLinear(in_features=192, out_features=192, bias=True)\n        )\n        (linear1): Linear(in_features=192, out_features=768, bias=True)\n        (dropout): Dropout(p=0.1, inplace=False)\n        (linear2): Linear(in_features=768, out_features=192, bias=True)\n        (norm1): LayerNorm((192,), eps=1e-05, elementwise_affine=True)\n        (norm2): LayerNorm((192,), eps=1e-05, elementwise_affine=True)\n        (dropout1): Dropout(p=0.1, inplace=False)\n        (dropout2): Dropout(p=0.1, inplace=False)\n        (activation): GELU(approximate=none)\n      )\n      (9): TransformerEncoderLayer(\n        (self_attn): MultiheadAttention(\n          (out_proj): NonDynamicallyQuantizableLinear(in_features=192, out_features=192, bias=True)\n        )\n        (linear1): Linear(in_features=192, out_features=768, bias=True)\n        (dropout): Dropout(p=0.1, inplace=False)\n        (linear2): Linear(in_features=768, out_features=192, bias=True)\n        (norm1): LayerNorm((192,), eps=1e-05, elementwise_affine=True)\n        (norm2): LayerNorm((192,), eps=1e-05, elementwise_affine=True)\n        (dropout1): Dropout(p=0.1, inplace=False)\n        (dropout2): Dropout(p=0.1, inplace=False)\n        (activation): GELU(approximate=none)\n      )\n      (10): TransformerEncoderLayer(\n        (self_attn): MultiheadAttention(\n          (out_proj): NonDynamicallyQuantizableLinear(in_features=192, out_features=192, bias=True)\n        )\n        (linear1): Linear(in_features=192, out_features=768, bias=True)\n        (dropout): Dropout(p=0.1, inplace=False)\n        (linear2): Linear(in_features=768, out_features=192, bias=True)\n        (norm1): LayerNorm((192,), eps=1e-05, elementwise_affine=True)\n        (norm2): LayerNorm((192,), eps=1e-05, elementwise_affine=True)\n        (dropout1): Dropout(p=0.1, inplace=False)\n        (dropout2): Dropout(p=0.1, inplace=False)\n        (activation): GELU(approximate=none)\n      )\n      (11): TransformerEncoderLayer(\n        (self_attn): MultiheadAttention(\n          (out_proj): NonDynamicallyQuantizableLinear(in_features=192, out_features=192, bias=True)\n        )\n        (linear1): Linear(in_features=192, out_features=768, bias=True)\n        (dropout): Dropout(p=0.1, inplace=False)\n        (linear2): Linear(in_features=768, out_features=192, bias=True)\n        (norm1): LayerNorm((192,), eps=1e-05, elementwise_affine=True)\n        (norm2): LayerNorm((192,), eps=1e-05, elementwise_affine=True)\n        (dropout1): Dropout(p=0.1, inplace=False)\n        (dropout2): Dropout(p=0.1, inplace=False)\n        (activation): GELU(approximate=none)\n      )\n    )\n  )\n  (proj_out): Linear(in_features=192, out_features=2, bias=True)\n)\n\n\n\nimport gc\ngc.collect()\n\n9\n\n\n\nids,preds = [],[]\nfor x,y in tqdm(dl):\n    with torch.no_grad(),torch.cuda.amp.autocast():\n        # p = torch.stack([torch.nan_to_num(model(x)) for model in models]\n        #                 ,0).mean(0)\n        p = torch.nan_to_num(model(x))\n        \n    for idx, mask, pi in zip(y['ids'].cpu(), x['mas
…
